Model: "functional_6"
+--------------------------------------------------------------------------+
| Layer (type)                    | Output Shape           |       Param # |
|---------------------------------+------------------------+---------------|
| input_layer_5 (InputLayer)      | (None, 200, 200, 3)    |             0 |
|---------------------------------+------------------------+---------------|
| sequential_7 (Sequential)       | (None, 200, 200, 3)    |             0 |
|---------------------------------+------------------------+---------------|
| rescaling_3 (Rescaling)         | (None, 200, 200, 3)    |             0 |
|---------------------------------+------------------------+---------------|
| xception (Functional)           | (None, 7, 7, 2048)     |    20,861,480 |
|---------------------------------+------------------------+---------------|
| global_average_pooling2d        | (None, 2048)           |             0 |
| (GlobalAveragePooling2D)        |                        |               |
|---------------------------------+------------------------+---------------|
| dropout_5 (Dropout)             | (None, 2048)           |             0 |
|---------------------------------+------------------------+---------------|
| dense_10 (Dense)                | (None, 1)              |         2,049 |
+--------------------------------------------------------------------------+
 Total params: 20,867,629 (79.60 MB)
 Trainable params: 2,049 (8.00 KB)
 Non-trainable params: 20,861,480 (79.58 MB)
 Optimizer params: 4,100 (16.02 KB)
