Model: "AlexNet"
+--------------------------------------------------------------------------+
| Layer (type)                    | Output Shape           |       Param # |
|---------------------------------+------------------------+---------------|
| conv2d_3 (Conv2D)               | (None, 48, 48, 128)    |        46,592 |
|---------------------------------+------------------------+---------------|
| batch_normalization             | (None, 48, 48, 128)    |           512 |
| (BatchNormalization)            |                        |               |
|---------------------------------+------------------------+---------------|
| max_pooling2d_3 (MaxPooling2D)  | (None, 24, 24, 128)    |             0 |
|---------------------------------+------------------------+---------------|
| conv2d_4 (Conv2D)               | (None, 24, 24, 256)    |       819,456 |
|---------------------------------+------------------------+---------------|
| batch_normalization_1           | (None, 24, 24, 256)    |         1,024 |
| (BatchNormalization)            |                        |               |
|---------------------------------+------------------------+---------------|
| max_pooling2d_4 (MaxPooling2D)  | (None, 8, 8, 256)      |             0 |
|---------------------------------+------------------------+---------------|
| conv2d_5 (Conv2D)               | (None, 8, 8, 256)      |       590,080 |
|---------------------------------+------------------------+---------------|
| batch_normalization_2           | (None, 8, 8, 256)      |         1,024 |
| (BatchNormalization)            |                        |               |
|---------------------------------+------------------------+---------------|
| conv2d_6 (Conv2D)               | (None, 8, 8, 256)      |        65,792 |
|---------------------------------+------------------------+---------------|
| batch_normalization_3           | (None, 8, 8, 256)      |         1,024 |
| (BatchNormalization)            |                        |               |
|---------------------------------+------------------------+---------------|
| conv2d_7 (Conv2D)               | (None, 8, 8, 256)      |        65,792 |
|---------------------------------+------------------------+---------------|
| batch_normalization_4           | (None, 8, 8, 256)      |         1,024 |
| (BatchNormalization)            |                        |               |
|---------------------------------+------------------------+---------------|
| max_pooling2d_5 (MaxPooling2D)  | (None, 4, 4, 256)      |             0 |
|---------------------------------+------------------------+---------------|
| flatten_3 (Flatten)             | (None, 4096)           |             0 |
|---------------------------------+------------------------+---------------|
| dense_6 (Dense)                 | (None, 1024)           |     4,195,328 |
|---------------------------------+------------------------+---------------|
| dropout_3 (Dropout)             | (None, 1024)           |             0 |
|---------------------------------+------------------------+---------------|
| dense_7 (Dense)                 | (None, 1024)           |     1,049,600 |
|---------------------------------+------------------------+---------------|
| dropout_4 (Dropout)             | (None, 1024)           |             0 |
|---------------------------------+------------------------+---------------|
| dense_8 (Dense)                 | (None, 10)             |        10,250 |
|---------------------------------+------------------------+---------------|
| dense_9 (Dense)                 | (None, 1)              |            11 |
+--------------------------------------------------------------------------+
 Total params: 20,537,921 (78.35 MB)
 Trainable params: 6,845,205 (26.11 MB)
 Non-trainable params: 2,304 (9.00 KB)
 Optimizer params: 13,690,412 (52.22 MB)
