Model: "functional_8"
+--------------------------------------------------------------------------+
| Layer (type)                    | Output Shape           |       Param # |
|---------------------------------+------------------------+---------------|
| input_layer_7 (InputLayer)      | (None, 200, 200, 3)    |             0 |
|---------------------------------+------------------------+---------------|
| sequential_7 (Sequential)       | (None, 200, 200, 3)    |             0 |
|---------------------------------+------------------------+---------------|
| rescaling_4 (Rescaling)         | (None, 200, 200, 3)    |             0 |
|---------------------------------+------------------------+---------------|
| inception_v3 (Functional)       | (None, 4, 4, 2048)     |    21,802,784 |
|---------------------------------+------------------------+---------------|
| global_average_pooling2d_1      | (None, 2048)           |             0 |
| (GlobalAveragePooling2D)        |                        |               |
|---------------------------------+------------------------+---------------|
| dropout_4 (Dropout)             | (None, 2048)           |             0 |
|---------------------------------+------------------------+---------------|
| dense_7 (Dense)                 | (None, 1)              |         2,049 |
+--------------------------------------------------------------------------+
 Total params: 21,808,933 (83.19 MB)
 Trainable params: 2,049 (8.00 KB)
 Non-trainable params: 21,802,784 (83.17 MB)
 Optimizer params: 4,100 (16.02 KB)
