Model: "single_conv2d_with_aug"
+--------------------------------------------------------------------------+
| Layer (type)                    | Output Shape           |       Param # |
|---------------------------------+------------------------+---------------|
| sequential (Sequential)         | (None, 200, 200, 3)    |             0 |
|---------------------------------+------------------------+---------------|
| rescaling (Rescaling)           | (None, 200, 200, 3)    |             0 |
|---------------------------------+------------------------+---------------|
| conv2d (Conv2D)                 | (None, 200, 200, 16)   |           448 |
|---------------------------------+------------------------+---------------|
| max_pooling2d (MaxPooling2D)    | (None, 100, 100, 16)   |             0 |
|---------------------------------+------------------------+---------------|
| dropout (Dropout)               | (None, 100, 100, 16)   |             0 |
|---------------------------------+------------------------+---------------|
| flatten (Flatten)               | (None, 160000)         |             0 |
|---------------------------------+------------------------+---------------|
| dense (Dense)                   | (None, 64)             |    10,240,064 |
|---------------------------------+------------------------+---------------|
| dense_1 (Dense)                 | (None, 1)              |            65 |
+--------------------------------------------------------------------------+
 Total params: 30,721,733 (117.19 MB)
 Trainable params: 10,240,577 (39.06 MB)
 Non-trainable params: 0 (0.00 B)
 Optimizer params: 20,481,156 (78.13 MB)
