Model: "AlexNet"
+--------------------------------------------------------------------------+
| Layer (type)                    | Output Shape           |       Param # |
|---------------------------------+------------------------+---------------|
| sequential_6 (Sequential)       | (None, 200, 200, 3)    |             0 |
|---------------------------------+------------------------+---------------|
| batch_normalization             | (None, 200, 200, 3)    |            12 |
| (BatchNormalization)            |                        |               |
|---------------------------------+------------------------+---------------|
| max_pooling2d_3 (MaxPooling2D)  | (None, 100, 100, 3)    |             0 |
|---------------------------------+------------------------+---------------|
| conv2d_3 (Conv2D)               | (None, 100, 100, 256)  |        19,456 |
|---------------------------------+------------------------+---------------|
| batch_normalization_1           | (None, 100, 100, 256)  |         1,024 |
| (BatchNormalization)            |                        |               |
|---------------------------------+------------------------+---------------|
| max_pooling2d_4 (MaxPooling2D)  | (None, 33, 33, 256)    |             0 |
|---------------------------------+------------------------+---------------|
| conv2d_4 (Conv2D)               | (None, 33, 33, 256)    |       590,080 |
|---------------------------------+------------------------+---------------|
| batch_normalization_2           | (None, 33, 33, 256)    |         1,024 |
| (BatchNormalization)            |                        |               |
|---------------------------------+------------------------+---------------|
| conv2d_5 (Conv2D)               | (None, 33, 33, 256)    |        65,792 |
|---------------------------------+------------------------+---------------|
| batch_normalization_3           | (None, 33, 33, 256)    |         1,024 |
| (BatchNormalization)            |                        |               |
|---------------------------------+------------------------+---------------|
| conv2d_6 (Conv2D)               | (None, 33, 33, 256)    |        65,792 |
|---------------------------------+------------------------+---------------|
| batch_normalization_4           | (None, 33, 33, 256)    |         1,024 |
| (BatchNormalization)            |                        |               |
|---------------------------------+------------------------+---------------|
| max_pooling2d_5 (MaxPooling2D)  | (None, 16, 16, 256)    |             0 |
|---------------------------------+------------------------+---------------|
| flatten_3 (Flatten)             | (None, 65536)          |             0 |
|---------------------------------+------------------------+---------------|
| dense_6 (Dense)                 | (None, 1024)           |    67,109,888 |
|---------------------------------+------------------------+---------------|
| dropout_3 (Dropout)             | (None, 1024)           |             0 |
|---------------------------------+------------------------+---------------|
| dense_7 (Dense)                 | (None, 1024)           |     1,049,600 |
|---------------------------------+------------------------+---------------|
| dropout_4 (Dropout)             | (None, 1024)           |             0 |
|---------------------------------+------------------------+---------------|
| dense_8 (Dense)                 | (None, 10)             |        10,250 |
|---------------------------------+------------------------+---------------|
| dense_9 (Dense)                 | (None, 1)              |            11 |
+--------------------------------------------------------------------------+
 Total params: 206,740,825 (788.65 MB)
 Trainable params: 68,912,923 (262.88 MB)
 Non-trainable params: 2,054 (8.02 KB)
 Optimizer params: 137,825,848 (525.76 MB)
