Model: "functional_12"
+--------------------------------------------------------------------------+
| Layer (type)                    | Output Shape           |       Param # |
|---------------------------------+------------------------+---------------|
| input_layer_11 (InputLayer)     | (None, 200, 200, 3)    |             0 |
|---------------------------------+------------------------+---------------|
| sequential_7 (Sequential)       | (None, 200, 200, 3)    |             0 |
|---------------------------------+------------------------+---------------|
| rescaling_4 (Rescaling)         | (None, 200, 200, 3)    |             0 |
|---------------------------------+------------------------+---------------|
| convnext_xlarge (Functional)    | (None, 6, 6, 2048)     |   348,147,968 |
|---------------------------------+------------------------+---------------|
| global_average_pooling2d_1      | (None, 2048)           |             0 |
| (GlobalAveragePooling2D)        |                        |               |
|---------------------------------+------------------------+---------------|
| dropout_4 (Dropout)             | (None, 2048)           |             0 |
|---------------------------------+------------------------+---------------|
| dense_7 (Dense)                 | (None, 1)              |         2,049 |
+--------------------------------------------------------------------------+
 Total params: 348,154,117 (1.30 GB)
 Trainable params: 2,049 (8.00 KB)
 Non-trainable params: 348,147,968 (1.30 GB)
 Optimizer params: 4,100 (16.02 KB)
